ch: 6
nc: 6 # number of classes
scales: # model compound scaling constants, i.e. 'model=yolo11n.yaml' will call yolo11.yaml with scale 'n'
  # [depth, width, max_channels]
  n: [0.50, 0.25, 1024]
  s: [0.50, 0.50, 1024]
  m: [0.50, 1.00, 512]
  l: [1.00, 1.00, 512]
  x: [1.00, 1.50, 512]

# YOLO11n backbone
backbone:
  # [from, repeats, module, args]
  - [-1, 1, IN, []]  # 0
  - [-1, 1, Multiin, [1]]  # 1     可见光
  - [-2, 1, Multiin, [2]]  # 2     红外

  # two stream backbone
  # Visible branch
  - [1, 1, Conv, [64, 3, 2]] # 3-P1/2
  - [-1, 1, Conv,  [128, 3, 2, 1, 2]] # 4-P2/4
  - [-1, 2, C3k2,  [256, False, 0.25]]
  # Infrared branch
  - [2, 1, Conv, [64, 3, 2 ] ] # 6-P1/2
  - [-1, 1, Conv,  [128, 3, 2, 1, 2]] # 7-P2/4
  - [-1, 2, C3k2,  [256, False, 0.25]]

  # --- Fusion Stage 1 ---
  - [[5,8], 1, CascadeWaveletFusion, [256]] # 9 fusion1 (P2 level)

  - [-1, 1, Conv,  [256, 3, 2, 1, 4]] # 10-P3/8 (visible)
  - [-2, 1, Conv,  [256, 3, 2, 1, 4]] # 11-P3/8  (infrared)

  # --- Fusion Stage 2 ---
  - [[10,11,9], 1, CascadeWaveletFusion, [256]] # 12 fusion2 (P3 level)

  - [-1, 2, C3k2,  [512, False, 0.25]] #13
  - [-1, 1, Conv,  [512, 3, 2]] #14 P4
  - [-3, 2, C3k2,  [512, False, 0.25]] #15
  - [-1, 1, Conv,  [512, 3, 2]] #16

  # --- Fusion Stage 3 ---
  - [[14,16,12], 1, CascadeWaveletFusion, [512]] # 17 fusion3 (P4 level)

  - [-1, 4, A2C2f, [512, 512, 4, True, 4]] #18
  - [-1, 1, Conv,  [1024, 3, 2]] # 19 P5
  - [-1, 4, A2C2f, [1024, 1024, 4, True, 1]] # 20
  - [-4, 4, A2C2f, [512, 512, 4, True, 4]] #21
  - [-1, 1, Conv,  [1024, 3, 2]] # 22
  - [-1, 4, A2C2f, [1024, 1024, 4, True, 1]] # 23

# head (no GLFA blocks, no P2 detect branch)
  - [[13, 15], 1, Concat, [1]]  # 24
  - [[18, 21], 1, Concat, [1]]  # 25
  - [[20, 23], 1, Concat, [1]]  # 26



head:
  - [-1, 1, nn.Upsample, [None, 2, "nearest"]] #27
  - [[-1, 25], 1, Concat, [1]] # cat backbone P4 28
  - [-1, 2, A2C2f, [512, False, -1]] # 11 29

  - [-1, 1, nn.Upsample, [None, 2, "nearest"]] #29
  - [[-1, 24], 1, Concat, [1]] # cat backbone P3 30
  - [-1, 2, A2C2f, [256, False, -1]] # 31

  - [-1, 1, Conv, [256, 3, 2]] #32
  - [[-1, 29], 1, Concat, [1]] # cat head P4 33
  - [-1, 2, A2C2f, [512, False, -1]] # 34

  - [-1, 1, Conv, [512, 3, 2]]#35
  - [[-1, 26], 1, Concat, [1]] # cat head P5 36
  - [-1, 2, C3k2, [1024, True]] # 20 (P5/32-large) 37


  - [[31, 34, 37], 1, Detect, [nc]] # Detect(P3, P4, P5) 38

