ch: 6
nc: 6 # number of classes
scales: # model compound scaling constants, i.e. 'model=yolo11n.yaml' will call yolo11.yaml with scale 'n'
  # [depth, width, max_channels]
  n: [0.50, 0.25, 1024] # summary: 319 layers, 2624080 parameters, 2624064 gradients, 6.6 GFLOPs
  s: [0.50, 0.50, 1024] # summary: 319 layers, 9458752 parameters, 9458736 gradients, 21.7 GFLOPs
  m: [0.50, 1.00, 512] # summary: 409 layers, 20114688 parameters, 20114672 gradients, 68.5 GFLOPs
  l: [1.00, 1.00, 512] # summary: 631 layers, 25372160 parameters, 25372144 gradients, 87.6 GFLOPs
  x: [1.00, 1.50, 512] # summary: 631 layers, 56966176 parameters, 56966160 gradients, 196.0 GFLOPs

# YOLO11n backbone
backbone:
  # [from, repeats, module, args]
  - [-1, 1, IN, []]  # 0
  - [-1, 1, Multiin, [1]]  # 1     可见光
  - [-2, 1, Multiin, [2]]  # 2     红外

  # two stream backbone
  # Visible branch
  - [1, 1, Conv, [64, 3, 2]] # 3-P1/2
  - [-1, 1, Conv,  [128, 3, 2, 1, 2]] # 4-P2/4
  - [-1, 2, C3k2,  [256, False, 0.25]]
  # Infrared branch
  - [2, 1, Conv, [64, 3, 2 ] ] # 6-P1/2
  - [-1, 1, Conv,  [128, 3, 2, 1, 2]] # 7-P2/4
  - [-1, 2, C3k2,  [256, False, 0.25]]

  # --- Fusion Stage 1 ---
  - [[5,8], 1, CascadeWaveletFusion, [256]] # 9 fusion1 (P2 level)

  - [-1, 1, Conv,  [256, 3, 2, 1, 4]] # 10-P3/8 (visible)
  - [-2, 1, Conv,  [256, 3, 2, 1, 4]] # 11-P3/8  (infrared)

  # --- Fusion Stage 2 ---
  - [[10,11,9], 1, CascadeWaveletFusion, [256]] # 12 fusion2 (P3 level)

  - [-1, 2, C3k2,  [512, False, 0.25]] #13
  - [-1, 1, Conv,  [512, 3, 2]] #14 P4
  - [-3, 2, C3k2,  [512, False, 0.25]] #15
  - [-1, 1, Conv,  [512, 3, 2]] #16

  # --- Fusion Stage 3 ---
  - [[14,16,12], 1, CascadeWaveletFusion, [512]] # 17 fusion3 (P4 level)

  - [-1, 4, A2C2f, [512, 512, 4, True, 4]] #18
  - [-1, 1, Conv,  [1024, 3, 2]] # 19 P5
  - [-1, 4, A2C2f, [1024, 1024, 4, True, 1]] # 20
  - [-4, 4, A2C2f, [512, 512, 4, True, 4]] #21
  - [-1, 1, Conv,  [1024, 3, 2]] # 22
  - [-1, 4, A2C2f, [1024, 1024, 4, True, 1]] # 23

  # --- Fusion Stage 4 ---
#  - [[19,22,17], 1, CascadeWaveletFusion, [1024]] # 24 fusion4 (P5 level)

  # 后续结构保持不变
  - [[13, 15], 1, Concat, [1]]  # 24 p3
  - [ -1, 1, GLFA, [ 512 ] ]  # 25 - 使用GLFA处理融合特征，降维到512通道
  - [[18, 21], 1, Concat, [1]]  # 26 p4
  - [ -1, 1, GLFA, [ 1024 ] ]  # 27 - 使用GLFA处理融合特征，降维到512通道
  - [[20, 23], 1, Concat, [1]]  # 28 p5
  - [ -1, 1, GLFA, [ 2048 ] ]  # 29 - 使用GLFA处理融合特征，降维到512通道

# YOLO12-turbo head
# YOLO12-turbo head
head:
  - [-1, 1, nn.Upsample, [None, 2, "nearest"]]#30
  - [[-1, 27], 1, Concat, [1]] # cat backbone P4 31
  - [-1, 2, A2C2f, [512, False, -1]] # 32

  - [-1, 1, nn.Upsample, [None, 2, "nearest"]] #33
  - [[-1, 25], 1, Concat, [1]] # cat backbone P3 34
  - [-1, 2, A2C2f, [256, False, -1]] # 35

  - [-1, 1, Conv, [256, 3, 2]]
  - [[-1, 32], 1, Concat, [1]] # cat head P4
  - [-1, 2, A2C2f, [512, False, -1]] # 17

  - [-1, 1, Conv, [512, 3, 2]]
  - [[-1, 29], 1, Concat, [1]] # cat head P5
  - [-1, 2, C3k2, [1024, True]] # 20 (P5/32-large)


  - [[29, 32, 35], 1, Detect, [nc]] # Detect(P3, P4, P5)