ch: 6
nc: 1 # number of classes
scales:
  n: [0.50, 0.25, 1024]
  s: [0.50, 0.50, 1024]
  m: [0.50, 1.00, 512]
  l: [1.00, 1.00, 512]
  x: [1.00, 1.50, 512]

backbone:
  - [-1, 1, IN, []]  # 0
  - [-1, 1, Multiin, [1]]  # 1 VIS
  - [-2, 1, Multiin, [2]]  # 2 IR
  - [1, 1, Conv, [64, 3, 2]]  # 3-P1/2
  - [-1, 1, Conv, [128, 3, 2, 1, 2]]  # 4-P2/4
  - [-1, 2, C3k2, [256, False, 0.25]]
  - [2, 1, Conv, [64, 3, 2]]  # 6-P1/2
  - [-1, 1, Conv, [128, 3, 2, 1, 2]]  # 7-P2/4
  - [-1, 2, C3k2, [256, False, 0.25]]
  - [-4, 1, Conv, [256, 3, 2, 1, 4]]  # 9-P3/8
  - [-2, 1, Conv, [256, 3, 2, 1, 4]]  # 10-P3/8 IR
  - [-2, 2, C3k2, [512, False, 0.25]]  # 11
  - [-1, 1, Conv, [512, 3, 2]]  # 12 P4
  - [-3, 2, C3k2, [512, False, 0.25]]  # 13
  - [-1, 1, Conv, [512, 3, 2]]  # 14
  - [-3, 4, A2C2f, [512, True, 4]]  # 15
  - [-1, 1, Conv, [1024, 3, 2]]  # 16 P5
  - [-1, 4, A2C2f, [1024, True, 1]]  # 17
  - [-4, 4, A2C2f, [512, True, 4]]  # 18
  - [-1, 1, Conv, [1024, 3, 2]]  # 19
  - [-1, 4, A2C2f, [1024, True, 1]]  # 20
  - [[11, 13], 1, Concat, [1]]  # 21 P3
  - [[15, 18], 1, Concat, [1]]  # 22 P4
  - [[17, 20], 1, Concat, [1]]  # 23 P5

head:
  - [-1, 1, nn.Upsample, [None, 2, "nearest"]]  # 24
  - [[-1, 22], 1, Concat, [1]]  # 25
  - [-1, 2, A2C2f, [512, False, -1]]  # 26
  - [-1, 1, nn.Upsample, [None, 2, "nearest"]]  # 27
  - [[-1, 21], 1, Concat, [1]]  # 28
  - [-1, 2, A2C2f, [256, False, -1]]  # 29
  - [-1, 1, Conv, [256, 3, 2]]  # 30
  - [[-1, 26], 1, Concat, [1]]  # 31
  - [-1, 2, A2C2f, [512, False, -1]]  # 32
  - [-1, 1, Conv, [512, 3, 2]]  # 33
  - [[-1, 23], 1, Concat, [1]]  # 34
  - [-1, 2, C3k2, [1024, True]]  # 35
  - [[29, 32, 35], 1, Detect, [nc]]  # Detect(P3, P4, P5)
