ch: 6
nc: 1 # number of classes
scales:
  n: [0.50, 0.25, 1024]
  s: [0.50, 0.50, 1024]
  m: [0.50, 1.00, 512]
  l: [1.00, 1.00, 512]
  x: [1.00, 1.50, 512]

backbone:
  - [-1, 1, IN, []] # 0
  - [-1, 1, Multiin, [1]] # 1 VIS
  - [-2, 1, Multiin, [2]] # 2 IR
  - [1, 1, Conv, [64, 3, 2]] # 3-P1/2
  - [-1, 1, Conv, [128, 3, 2, 1, 2]] # 4-P2/4
  - [-1, 2, C3k2, [256, False, 0.25]]
  - [2, 1, Conv, [64, 3, 2]] # 6-P1/2
  - [-1, 1, Conv, [128, 3, 2, 1, 2]] # 7-P2/4
  - [-1, 2, C3k2, [256, False, 0.25]]
  - [-4, 1, Conv, [256, 3, 2, 1, 4]] # 9-P3/8
  - [-2, 1, Conv, [256, 3, 2, 1, 4]] # 10-P3/8 IR
  - [-2, 2, C3k2, [512, False, 0.25]] # 11
  - [-1, 1, Conv, [512, 3, 2]] # 12 P4
  - [-3, 2, C3k2, [512, False, 0.25]] # 13
  - [-1, 1, Conv, [512, 3, 2]] # 14
  - [-3, 4, A2C2f, [512, True, 4]] # 15
  - [-1, 1, Conv, [1024, 3, 2]] # 16 P5
  - [-1, 4, A2C2f, [1024, True, 1]] # 17
  - [-4, 4, A2C2f, [512, True, 4]] # 18
  - [-1, 1, Conv, [1024, 3, 2]] # 19
  - [-1, 4, A2C2f, [1024, True, 1]] # 20
  - [[5, 8], 1, Concat, [1]] # 21 P2
  - [[11, 13], 1, Concat, [1]] # 22 P3
  - [[15, 18], 1, Concat, [1]] # 23 P4
  - [[17, 20], 1, Concat, [1]] # 24 P5

head:
  - [-1, 1, nn.Upsample, [None, 2, "nearest"]] # 25
  - [[-1, 23], 1, Concat, [1]] # 26 cat P4
  - [-1, 2, A2C2f, [512, False, -1]] # 27
  - [-1, 1, nn.Upsample, [None, 2, "nearest"]] # 28
  - [[-1, 22], 1, Concat, [1]] # 29 cat P3
  - [-1, 2, A2C2f, [256, False, -1]] # 30
  - [-1, 1, nn.Upsample, [None, 2, "nearest"]] # 31
  - [[-1, 21], 1, Concat, [1]] # 32 cat P2
  - [-1, 2, A2C2f, [256, False, -1]] # 33 P2/4
  - [-1, 1, SAAF, [0.25]] # 34 small-object focus
  - [-1, 1, Conv, [256, 3, 2]] # 35
  - [[-1, 30], 1, Concat, [1]] # 36 cat P3
  - [-1, 2, A2C2f, [512, False, -1]] # 37 P3/8
  - [-1, 1, Conv, [512, 3, 2]] # 38
  - [[-1, 27], 1, Concat, [1]] # 39 cat P4
  - [-1, 2, A2C2f, [1024, False, -1]] # 40 P4/16
  - [-1, 1, Conv, [1024, 3, 2]] # 41
  - [[-1, 24], 1, Concat, [1]] # 42 cat P5
  - [-1, 2, A2C2f, [1024, False, -1]] # 43 P5/32
  - [[34, 37, 40, 43], 1, Detect, [nc]] # Detect(P2, P3, P4, P5)
